implementation 2/results/model.pth (torch, 88439 bytes, 7 tensors)

conv1.weight f4 [10, 1, 5, 5]
0.10458219 -0.085729636 -0.03143364 0.101760454 -0.18242207 0.123692565 -0.037542112 0.11142192
0.036250915 -0.014796119 0.061980274 0.01613512 0.084509775 -0.067959085 -0.006558568 -0.011024523
0.03538997 0.0066983313 0.17937559 0.06707605 -0.07058507 -0.1199385 -0.031768046 -0.084561
-0.062307354 0.0036454736 0.11689053 0.10870114 -0.19626339 0.11962943 0.05204868 0.19074355
0.1326663 -0.1841058 -0.1927882 -0.09743949 0.1765746 -0.035436552 0.079280645 -0.098270595
0.19489467 -0.08566323 0.14507976 -0.003926944 -0.1097467 0.10232818 -0.10910412 0.05201463
-0.06378885 -0.023951132 -0.191432 -0.094987206 0.10717908 -0.047376383 0.20004427 0.16026825
-0.011546142 -0.13725133 0.11735204 0.059379887 -0.129004 0.12683488 0.11583682 0.17143403
-0.11375681 -0.034504306 -0.0076623415 0.023061322 -0.15916775 -0.14424461 0.10553638 -0.050931223
0.09041595 0.0025609564 0.063077286 0.039416663 0.06953286 0.09772585 -0.18885271 0.10026754
-0.14219542 -0.15228029 0.011641733 -0.03697885 0.11840926 -0.115653135 -0.17863046 0.14558284
-0.028361281 0.11257664 0.06359867 -0.15035814 0.04307699 0.049228135 -0.13469231 -0.09564634
0.06895019 0.037863 -0.08472951 -0.060996167 0.17862046 -0.041489456 0.109138474 0.07905722
-0.13791868 -0.17730737 0.18572384 0.0039454014 0.1275278 0.03252701 0.053981118 0.14144678
0.18035394 -0.14518267 0.015582532 0.13767532 0.13435814 0.114918865 -0.15442447 -0.15189116
-0.13334389 0.016323717 0.19449176 -0.1305358 0.101170644 -0.11132546 -0.18637328 -0.037641298
0.11926363 0.187587 -0.12640928 0.04314302 0.17501837 0.13449843 0.123682424 0.13931803
0.12738979 0.053856887 -0.13296886 -0.16932228 -0.0940255 -0.022887394 -0.119828485 0.074971996
0.058854602 -0.048172712 0.0755748 0.06807382 0.12394792 0.1322158 -0.071206704 0.19107942
-0.02458272 -0.007273483 -0.19164132 -0.13146687 -0.1202316 -0.08666525 0.14029929 -0.069546156
-0.15063599 0.07443072 0.06141661 0.12645847 -0.1073645 0.043598294 -0.075219296 -0.048709195
-0.16213861 -0.096435234 -0.060006212 0.08539799 0.032184593 0.042703003 0.19047323 0.19595218
0.13664003 0.0050567295 -0.13776928 0.15916157 -0.044995766 -0.015392203 -0.17234401 -0.040079013
-0.12782474 0.18747257 -0.17104371 -0.15592468 -0.00664538 -0.10567252 0.07479659 -0.07558407
-0.09407422 0.013110437 0.14943816 -0.13758051 0.09403043 0.12944238 0.19811165 -0.13599408
0.043659024 -0.15148565 0.16349725 -0.08497292 0.11375932 0.000967675 -0.021815322 -0.014992781
0.027067622 0.08801685 0.028703267 0.05509195 -0.18551877 0.13953835 0.16838507 0.16210742
0.14692736 -0.1467217 -0.076960765 0.17323953 -0.15110153 0.18526585 -0.1574364 -0.14276783
0.096050374 -0.14394544 -0.044641536 0.14697516 0.15961944 0.1871761 -0.04045858 -0.1554921
0.19586353 -0.0434606 -0.08296444 0.04866464 -0.14099869 0.13045989 0.12633285 -0.15599464
-0.16508764 -0.019250393 0.08392959 -0.0012193483 -0.09664913 0.0029860812 -0.18900147 -0.14008738
-0.12921624 0.16867958
00000000: 302f d63d 0593 afbd 8fc0 00bd c967 d03d
00000010: dacc 3abe 8752 fd3d c2c5 19bd 2d31 e43d
00000020: d77b 143d 6c6b 72bc 07df 7d3d cd2d 843c
00000030: 7613 ad3d 222e 8bbd 42e9 d6bb 33a0 34bc
00000040: 13f5 103d ad7d db3b 3cae 373e 2b5f 893d
00000050: e88e 90bd 51a2 f5bd 361f 02bd 512e adbd
00000060: ff35 7fbd e6e8 6e3b 4d64 ef3d b49e de3d
00000070: 45f9 48be 4600 f53d ff30 553d 4752 433e
00000080: add9 073e 3b86 3cbe 456a 45be 5b8e c7bd
00000090: f9cf 343e eb25 11bd e45d a23d 1842 c9bd
000000a0: 7892 473e 3470 afbd ca8f 143e 98ad 80bb
000000b0: e1c2 e0bd 7091 d13d fb71 dfbd 4b0d 553d
000000c0: bba3 82bd 2a35 c4bc c006 44be a788 c2bd
000000d0: b580 db3d bd0d 42bd 68d8 4c3e 5c1d 243e
000000e0: 082c 3dbc 9d8b 0cbe 4456 f03d 5338 733d
000000f0: a019 04be 01e1 013e db3b ed3d 678c 2f3e
00000100: 55f9 e8bd 6354 0dbd 6114 fbbb 19eb bc3c
00000110: dffc 22be dcb4 13be 7523 d83d 429d 50bd
00000120: ff2b b93d b8d5 273b aa2e 813d 5e73 213d
00000130: 3e67 8e3d 7e24 c83d 9b62 41be 1159 cd3d
00000140: ad9b 11be 5def 1bbe f8bc 3e3c 2277 17bd
00000150: 8e80 f23d 8ddb ecbd e7ea 36be ab13 153e
00000160: eb55 e8bc 958e e63d 0540 823d 7cf7 19be
00000170: 7f71 303d 71a3 493d c8ec 09be 3ae2 c3bd
00000180: c235 8d3d 3c16 1b3d aa86 adbd 1ed7 79bd
00000190: 48e8 363e d9f0 29bd fe83 df3d c0e8 a13d
000001a0: 8e3a 0dbe 1090 35be 642e 3e3e 6d48 813b
000001b0: a696 023e 0b3b 053d 4e1b 5d3d 6dd7 103e
000001c0: b4ae 383e c4aa 14be e04d 7f3c c2fa 0c3e
000001d0: 2e95 093e 955a eb3d 7321 1ebe 5b89 1bbe
000001e0: 4d8b 08be 51b9 853c d928 473e 2dab 05be
000001f0: 8e32 cf3d 9afe e3bd a3d8 3ebe c32d 1abd
00000200: 7d40 f43d ce16 403e 6f71 01be bcb6 303d
00000210: 0438 333e f5b9 093e 364d fd3d 63a9 0e3e
00000220: 7872 023e 0a99 5c3d fd28 08be d262 2dbe
00000230: 7190 c0bd 587e bbbc a368 f5bd eb8a 993d
00000240: 8611 713d c050 45bd f6c6 9a3d 496a 8b3d
00000250: 68d8 fd3d 9463 073e d2d4 91bd 53aa 433e
00000260: b361 c9bc 6656 eebb 9f3d 44be 409f 06be
00000270: fc3b f6bd 8d7d b1bd 9eaa 0f3e 376e 8ebd
00000280: 5240 1abe 226f 983d fc8f 7b3d 547e 013e
00000290: ebe1 dbbd 2094 323d 930c 9abd 4b83 47bd
000002a0: aa07 26be d67f c5bd 13c9 75bd 24e5 ae3d
000002b0: fed3 033d 58e9 2e3d 6a0b 433e b0a7 483e
000002c0: 5deb 0b3e ecb2 a53b 6413 0dbe 40fb 223e
000002d0: 7b4d 38bd 942f 7cbc f37a 30be e429 24bd
000002e0: 7de4 02be cff8 3f3e 1526 2fbe b8aa 1fbe
000002f0: 7dc1 d9bb d66a d8bd f42e 993d d2cb 9abd
00000300: fca9 c0bd 29cd 563c 5106 193e e8e1 0cbe
00000310: 0793 c03d 8b8c 043e c8dd 4a3e 0842 0bbe
00000320: ced3 323d 0e1f 1bbe d36b 273e 4806 aebd
00000330: a5fa e83d 92ab 7d3a 0cb6 b2bc 48a4 75bc
00000340: ebbc dd3c 2e42 b43d 1d23 eb3c 19a8 613d
00000350: a2f8 3dbe 24e3 0e3e 236d 2c3e 7dff 253e
00000360: 2074 163e 373e 16be 9b9d 9dbd b465 313e
00000370: 5cba 1abe 55b6 3d3e 0237 21be bb31 12be
00000380: 0fb6 c43d 6f66 13be 0bda 36bd a880 163e
00000390: 4773 233e 17ab 3f3e e5b7 25bd 5239 1fbe
000003a0: 7390 483e be03 32bd 43e9 a9bd 9354 473d
000003b0: f661 10be 4797 053e 665d 013e 0fbd 1fbe
000003c0: bc0c 29be 00b3 9dbc 47e3 ab3d 8ad2 9fba
000003d0: fbef c5bd 21b2 433b 9a89 41be 1173 0fbe
000003e0: 4351 04be 57ba 2c3e

conv1.bias f4 [10]
0.17443167 -0.06882582 0.009586169 0.08672926 0.020231139 -0.09903229 0.11555465 0.124978736
-0.013530594 -0.026885992
00000000: 379e 323e 8df4 8cbd 4f0f 1d3c 1c9f b13d
00000010: c6bb a53c 71d1 cabd eba7 ec3d daf4 ff3d
00000020: 6daf 5dbc 0340 dcbc

conv2.weight f4 [20, 10, 5, 5]
0.060207035 0.058488745 -0.03314221 0.06416907 0.016826803 -0.040493388 0.036562823 -0.04437884
0.061792452 -0.040673777 0.01983082 0.020115737 0.016706927 0.05622388 -0.023977114 -0.025207596
-0.05208045 -0.0004164211 -0.028375084 0.0055327327 -0.013340481 0.022135563 0.057290383 0.019941168
-0.020458465 -0.030254008 -0.05512922 0.05864133 -0.010299686 0.012266747 0.0013697899 -0.037252374
0.040190544 0.03874151 0.0043282905 -0.03745753 -0.024702497 0.0046519917 -0.032614306 -0.03435979
-0.011982207 -0.017903272 0.019901037 -0.013389845 -0.009736119 -0.024788141 -0.058501095 0.05720949
0.014294837 0.058278326 -0.010730707 -0.013814518 -0.058820616 -0.022909187 0.040899783 -0.05950552
-0.01977854 0.038540605 0.037635278 0.022426257 -0.012497356 -0.0044080317 -0.011585443 -0.023859259
0.026363764 -0.02104901 -0.033709303 0.015308232 -0.04718023 -0.012266233 0.032427702 0.022491012
0.053509142 -0.04161995 0.0012916229 -0.016912565 -0.033779398 -0.03548409 0.016384872 0.0067397426
-0.029936807 -0.04305202 -0.051136766 0.06217612 -0.0097787455 -0.013560457 -0.021296566 -0.029868336
-0.058627196 -0.03529575 0.039972678 0.01571363 -0.022400819 -0.020994069 0.043890085 0.04906159
0.064234726 0.018989634 0.032542054 -0.0031552266 -0.03629549 -0.056948163 0.046332236 -0.0038840263
0.026629312 0.0025821202 -0.05481014 -0.02624529 0.022890545 -0.011300913 -0.06277321 0.025595093
0.0073434613 -0.015820991 0.023531066 0.011940709 -0.021065982 0.060967013 0.034825377 0.008896744
-0.015659636 -0.054308183 0.050898917 -0.0146954 -0.040195722 0.042856507 0.027833616 0.018585162
-0.012092121 -0.020132342 0.014913021 0.05406629 0.00990979 -0.0304955 0.06137647 0.004128207
0.051022008 0.013568862 0.056574054 0.03790096 -0.031171383 0.046642832 0.0029151982 -0.0535416
-0.013221697 -0.056658793 -0.031806055 -0.04481552 0.042710558 -0.0112234205 -0.0102872215 0.0319738
0.02581711 -0.040757984 0.024897637 0.026762601 -0.049398687 0.055343587 -0.037071023 -0.023038318
-0.050054584 0.05877911 0.012659867 0.056680806 0.004687874 0.034482762 -0.020288032 -0.049653236
0.012751926 -0.0052005416 -0.0051411125 -0.029507471 0.0033731458 0.018699206 0.02324065 -0.04803051
0.029700581 0.007944131 0.04538473 0.045982532 -0.049353253 0.058649793 -0.060853682 0.036867265
0.008724305 0.031060632 -0.0325295 0.03898024 -0.03145893 -0.051782515 0.020527417 0.03239316
0.062925845 -0.0030378096 0.062139638 0.04166072 -0.03234655 -0.048766814 0.037377186 -0.03470409
0.033871748 -0.049378023 0.048517153 0.020488286 -0.003625182 0.03286537 -0.040482044 -0.011005512
0.00079908106 -0.032440357 -0.013734939 -0.024952358 0.06293532 0.056371577 0.057507712 0.05585259
-0.05793321 0.022719514 0.02552027 -0.044052396 0.026414644 -0.03310321 0.011298736 0.022324296
0.055860307 -0.03307258 -0.04613232 0.05892743 0.027499294 0.032185536 0.024622578 -0.01984007
0.0387256 -0.05393573 0.009514753 0.03220238 0.045533966 -0.028360866 -0.04094535 0.024771864
-0.048550244 -0.04854111 -0.05313854 -0.029116228 -0.009291092 -0.03566913 -0.021142157 -0.053011887
0.041449543 -0.0101089375 -0.04307905 0.014004849 -0.049290355 0.041728895 0.034250196 -0.0642436
00000000: a79b 763d e591 6f3d 20c0 07bd 136b 833d
00000010: 5dd8 893c 65dc 25bd e6c2 153d 96c6 35bd
00000020: 151a 7d3d 8c99 26bd 3e74 a23c c2c9 a43c
00000030: f7dc 883c 034b 663d a76b c4bc 2980 cebc
00000040: 4f52 55bd 1853 dab9 dd72 e8bc ed4b b53b
00000050: 0892 5abc a455 b53c 52a9 6a3d a95b a33c
00000060: 8398 a7bc 41d7 f7bc 2dcf 61bd e431 703d
00000070: 04c0 28bc 77fa 483c 868a b33a f295 18bd
00000080: d79e 243d 6baf 1e3d 55d4 8d3b 116d 19bd
00000090: e45c cabc bc6f 983b 9496 05bd dabc 0cbd
000000a0: 0551 44bc e2a9 92bc 8007 a33c 1561 5bbc
000000b0: 3e84 1fbc 8010 cbbc d89e 6fbd 8054 6a3d
000000c0: e434 6a3c 41b5 6e3d d9cf 2fbc 4a56 62bc
000000d0: e3ed 70bd 0cac bbbc 8886 273d 0fbc 73bd
000000e0: 9b06 a2bc c1dc 1d3d 7327 1a3d 45b7 b73c
000000f0: b6c1 4cbc 4071 90bb dfd0 3dbc 7e74 c3bc
00000100: d2f8 d73c f96e acbc c412 0abd 61cf 7a3c
00000110: 0f40 41bd 4ff8 48bc e9d2 043d 123f b83c
00000120: 672c 5b3d ae79 2abd ac4b a93a 388c 8abc
00000130: 445c 0abd c457 11bd 9139 863c 0fd9 dc3b
00000140: 093e f5bc 5157 30bd c974 51bd 63ac 7e3d
00000150: 0837 20bc ae2c 5ebc 2376 aebc 71ae f4bc
00000160: 1223 70bd 4792 10bd 64ba 233d dfb9 803c
00000170: ec81 b7bc c1fb abbc 17c6 333d cef4 483d
00000180: 7f8d 833d 2690 9b3c d14a 053d ebc7 4ebb
00000190: 94aa 14bd 7a42 69bd dfc6 3d3d 268b 7ebb
000001a0: b725 da3c ca38 293b 9980 60bd 5d00 d7bc
000001b0: f484 bb3c 7727 39bc 3e8f 80bd cdac d13c
000001c0: 6ba1 f03b 069b 81bc 39c4 c03c f7a2 433c
000001d0: 9192 acbc 8cb8 793d 0ea5 0e3d a6c3 113c
000001e0: a348 80bc 4272 5ebd 627b 503d fac4 70bc
000001f0: 45a4 24bd 4e8a 2f3d 5303 e43c e93f 983c
00000200: 081e 46bc 95ec a4bc be55 743c 9d74 5d3d
00000210: ac5c 223c b3d1 f9bc e565 7b3d e945 873b
00000220: 74fc 503d ef4f 5e3c 32ba 673d 093e 1b3d
00000230: 215b ffbc 8e0c 3f3d e90c 3f3b 704e 5bbd
00000240: d19f 58bc 0d13 68bd 1147 02bd 7b90 37bd
00000250: 44f1 2e3d 70e2 37bc bc8b 28bc f6f6 023d
00000260: 677e d33c d8f1 26bd 21f6 cb3c 3e3d db3c
00000270: 4756 4abd f5af 623d c9d7 17bd dbba bcbc
00000280: 0906 4dbd 5dc2 703d 556b 4f3c 222a 683d
00000290: bd9c 993b cc3d 0d3d 1633 a6bc 3161 4bbd
000002a0: 74ed 503c 4e69 aabb c776 a8bb a7b9 f1bc
000002b0: ff0f 5d3b 142f 993c 2d63 be3c a4bb 44bd
000002c0: a24e f33c 1a28 023c 57e5 393d 2e58 3c3d
000002d0: a326 4abd c43a 703d b641 79bd 2102 173d
000002e0: 63f0 0e3c de72 fe3c a73d 05bd bea9 1f3d
000002f0: 14db 00bd e719 54bd 1d29 a83c b1ae 043d
00000300: 44df 803d fd15 47bb 2286 7e3d 6ea4 2a3d
00000310: d17d 04bd b6bf 47bd d218 193d e025 0ebd
00000320: 1abd 0a3d 9c40 4abd ecb9 463d 0dd7 a73c
00000330: 7694 6dbb d79d 063d 80d0 25bd 7750 34bc
00000340: 6c79 513a 2ee0 04bd 8208 61bc e368 ccbc
00000350: 3ce4 803d e2e5 663d 358d 6b3d afc5 643d
00000360: 604b 6dbd 461e ba3c e30f d13c 4970 34bd
00000370: 8663 d83c 3b97 07bd 551e 393c 71e1 b63c
00000380: c7cd 643d 1d77 07bd 3ef5 3cbd e45d 713d
00000390: 3346 e13c fbd4 033d 4ab5 c93c a487 a2bc
000003a0: bc9e 1e3d b6eb 5cbd c4e3 1b3c a5e6 033d
000003b0: d381 3a3d 0c55 e8bc 50b6 27bd 5dee ca3c
000003c0: 9fdc 46bd 0bd3 46bd cca7 59bd 2885 eebc
000003d0: aa39 18bc cb19 12bd 5132 adbc fe22 59bd
000003e0: ffc6 293d f59f 25bc a873 30bd 9874 653c
000003f0: afe4 49bd ebeb 2a3d ef49 0c3d 2692 83bd

conv2.bias f4 [20]
0.030163039 -0.008449606 0.058792032 -0.008295087 0.003186202 -0.03761522 -0.033797067 -0.017981999
-0.059206534 -0.004039688 0.018908624 -0.039230417 -0.050558098 0.05641199 -0.026380068 -0.049596712
-0.010335697 -0.02585315 -0.057361275 -0.009750376
00000000: 7a18 f73c 3770 0abc eacf 703d 1ee8 07bc
00000010: 99cf 503b 6b12 1abd cb6e 0abd fc4e 93bc
00000020: 8d82 72bd 5c5f 84bb 42e6 9a3c 13b0 20bd
00000030: 0216 4fbd 4210 673d 031b d8bc ec25 4bbd
00000040: 0e57 29bc fcc9 d3bc a8f3 6abd 0bc0 1fbc

fc1.weight f4 [50, 320]
-0.032340962 -0.02592791 0.019700918 -0.00033850517 0.037487045 -0.06430012 0.045201596 0.026551465
-0.02566097 0.02897266 0.04635164 0.00076777727 0.0070405407 -0.022794476 -0.00950432 -0.005556994
-0.027055599 0.0023136958 -0.031308785 0.025670815 0.005293306 -0.05079439 0.04889868 0.014706003
0.019827442 -0.061325513 0.044982344 0.011199499 -0.008368506 -0.040568423 0.004449717 0.014283027
0.014436807 0.027117876 -0.061998557 -0.048119396 0.043016847 0.032143757 -0.011000877 0.027536158
0.025856212 0.029155346 -0.030382607 -0.02928973 -0.03717336 -0.020596404 0.04505459 -0.012920164
-0.04468804 0.041923128 0.0179551 0.0060255383 -0.029365368 0.038578093 -0.050317854 0.025382737
-0.007700775 -0.02304933 -0.054449107 0.003398878 -0.02746512 -0.02448982 0.029568668 -0.039798588
0.05255012 0.044152815 0.03706772 0.0023184898 -0.04402922 -0.016290821 -0.031206174 -0.011745598
-0.054561153 -0.027733296 -0.013628161 -0.003447683 -0.016367894 0.009920699 -0.03364128 -0.042402215
-0.04276 0.04656313 0.02928159 -0.053149384 -0.051509522 -0.0070900596 -0.03420505 0.013936865
-0.024864683 0.0007275968 -0.018907754 -0.049309757 -0.010804626 0.04474319 0.036650233 -0.042499233
0.01309766 0.040916327 -0.004552671 -0.008923281 0.040771708 -0.004801047 -0.013263253 0.047197603
0.017855091 -0.039137147 0.036588766 0.038531184 0.040059276 -0.035299093 -0.029536802 0.0315145
0.038968213 -0.051583648 0.04272836 0.027270338 0.013051815 -0.022198264 -0.0097803315 0.030712025
0.0049197027 0.038032744 -0.0376166 -0.024394486 -0.009212844 0.019725684 0.018576544 0.027431214
-0.031465627 -0.0099571245 0.021809 -0.024724359 0.039650735 0.03934108 0.031557675 0.0297972
0.0335715 -0.04754373 -0.016790146 0.041881092 -0.024569761 0.004710131 -0.019076215 -0.0025538283
-0.015047064 -0.023825156 0.0036408945 0.047000393 -0.0035444358 -0.020381667 0.042904586 -0.030524904
0.010650383 -0.002864101 0.011758463 0.027416028 0.013542907 -0.0066352193 0.022807525 0.006362196
-0.014180497 0.009271896 -0.02723097 0.0048742094 -0.0380233 0.024425033 0.05567431 -0.017582
-0.055119183 0.044611227 -0.027054306 0.036868628 0.0353492 -0.020521326 0.0025186634 -0.0238494
0.04335327 -0.047821797 -0.002912996 -0.032766946 0.03960881 0.017073076 0.04278205 -0.027325597
0.013339087 -0.054736935 0.030252382 -0.022309568 0.016771307 0.025604771 -0.035137154 0.027612934
-0.023268785 0.020743858 -0.019211642 0.0024217095 0.0047244965 0.048065044 0.015873453 0.008889367
-0.0119921705 -0.055719275 -0.026056973 -0.020686105 0.017446794 -0.004074188 0.017351406 -0.02932022
-0.056721658 0.019066056 0.026721602 0.027556963 0.044759315 -0.057793222 0.0130666075 0.040209193
-0.030538741 0.02820489 0.024833037 0.0076744584 -0.057586163 0.024141537 0.04644535 -0.011027562
0.022213625 0.04061557 -0.0433856 -0.052812435 0.02213991 -0.0060226037 -0.028448049 -0.053532593
-0.035747718 0.010148967 -0.012314259 -0.04966586 -0.006985138 -0.004322802 -0.05250219 0.030013245
0.057565056 0.038337816 -0.051865824 -0.036387954 -0.042723354 0.044906538 -0.029099151 0.039176702
-0.023932394 0.019769717 0.037546214 -0.030947674 0.021866335 0.024651548 0.009263843 -0.024976417
00000000: f577 04bd c566 d4bc d263 a13c 6579 b1b9
00000010: 048c 193d c8af 83bd 4f25 393d 7582 d93c
00000020: f436 d2bc 1258 ed3c 38db 3d3d a944 493a
00000030: 56b4 e63b 7bbb babc 02b8 1bbc 7217 b6bb
00000040: b4a3 ddbc 60a1 173b a43d 00bd 9a4b d23c
00000050: 7873 ad3b c70d 50bd fb49 483d 72f1 703c
00000060: 296d a23c 7630 7bbd 683f 383d 1a7e 373c
00000070: 0f1c 09bc 132b 26bd eece 913b 5b03 6a3c
00000080: 5b88 6c3c 4f26 de3c 33f2 7dbd d818 45bd
00000090: 6f32 303d 2ca9 033d 063d 34bc 8293 e13c
000000a0: 68d0 d33c 31d7 ee3c f2e4 f8bc 04f1 efbc
000000b0: 1843 18bd cab9 a8bc 298b 383d 18af 53bc
000000c0: ce0a 37bd 96b7 2b3d 9316 933c e171 c53b
000000d0: a48f f0bc 1004 1e3d 181a 4ebd 75ef cf3c
000000e0: c856 fcbb f3d1 bcbc 0706 5fbd b6bf 5e3b
000000f0: 88fe e0bc e09e c8bc fe39 f23c d803 23bd
00000100: cb3e 573d 95d9 343d 52d4 173d cef1 173b
00000110: fc57 34bd 5474 85bc 17a4 ffbc 9c70 40bc
00000120: 847b 5fbd f030 e3bc a648 5fbc 86f2 61bb
00000130: f615 86bc 6d8a 223c 70cb 09bd f2ad 2dbd
00000140: 1c25 2fbd fbb8 3e3d f2df ef3c 2bb3 59bd
00000150: a6fb 52bd bb53 e8bb 981a 0cbd 7357 643c
00000160: 05b1 cbbc 32bc 3e3a 6fe4 9abc 07f9 49bd
00000170: e305 31bc a344 373d 8e1e 163d ad13 2ebd
00000180: 9197 563c e197 273d 932e 95bb f432 12bc
00000190: 3c00 273d 1a52 9dbb 1d4e 59bc 4652 413d
000001a0: d744 923c 464e 20bd 1ade 153d e0d2 1d3d
000001b0: 3215 243d c895 10bd 2af7 f1bc 5915 013d
000001c0: 229d 1f3d 6049 53bd ef03 2f3d 0b66 df3c
000001d0: 48d7 553c 22d9 b5bc af3d 20bc c997 fb3c
000001e0: 7535 a13b 39c8 1b3d dd13 1abd f2d6 c7bc
000001f0: 78f1 16bc c297 a13c d62d 983c 6db7 e03c
00000200: 1ae2 00bd 3523 23bc caa8 b23c bd8a cabc
00000210: cf68 223d 1d24 213d 9f42 013d 4219 f43c
00000220: 4582 093d 37bd 42bd 7d8b 89bc 828b 2b3d
00000230: 8646 c9bc 7157 9a3b b945 9cbc 215e 27bb
00000240: f687 76bc f92c c3bc 139c 6e3b 7c83 403d
00000250: c449 68bb 74f7 a6bc b8bc 2f3d 5d0f fabc
00000260: f27e 2e3c a4b3 3bbb 92a6 403c 9497 e03c
00000270: 12e3 5d3c 416c d9bb d9d6 ba3c f879 d03b
00000280: 5155 68bc 27e9 173c 7c13 dfbc d5b7 9f3b
00000290: 52be 1bbd 0217 c83c bf0a 643d 2008 90bc
000002a0: a7c4 61bd 43ba 363d fea0 ddbc 8f03 173d
000002b0: 53ca 103d 571c a8bc 2910 253b d15f c3bc
000002c0: 3393 313d cae0 43bd f7e7 3ebb a236 06bd
000002d0: d93c 223d d6dc 8b3c 3b3c 2f3d eed9 dfbc
000002e0: 308c 5a3c d633 60bd d8d3 f73c 8ec2 b6bc
000002f0: fb63 893c 19c1 d13c faeb 0fbd 8534 e23c
00000300: 2e9e bebc 06ef a93c bc61 9dbc 8bb5 1e3b
00000310: f3cf 9a3b dadf 443d 0b09 823c b5a4 113c
00000320: cf7a 44bc e539 64bd 6f75 d5bc e875 a9bc
00000330: 94ec 8e3c c480 85bb 8924 8e3c f530 f0bc
00000340: f854 68bd 6b30 9c3c 43e7 da3c 24bf e13c
00000350: 8b55 373d 96b8 6cbd 5315 563c 65b2 243d
00000360: 622c fabc f10d e73c a76e cb3c 067a fb3b
00000370: 78df 6bbd 79c4 c53c 7b3d 3e3d f3ac 34bc
00000380: 59f9 b53c 835c 263d 19b5 31bd da51 58bd
00000390: c25e b53c 4359 c5bb e20b e9bc fe44 5bbd
000003a0: 336c 12bd da47 263c bfc1 49bc 6e6e 4bbd
000003b0: 96e3 e4bb 4ba6 8dbb 890c 57bd 56de f53c
000003c0: 56c9 6b3d 1d08 1d3d 4271 54bd 890b 15bd
000003d0: affe 2ebd ebef 373d 5861 eebc c077 203d
000003e0: de0d c4bc 1af4 a13c 0fca 193d fa85 fdbc
000003f0: 0721 b33c 0bf2 c93c 60c7 173c 589b ccbc

fc1.bias f4 [50]
0.03239952 0.030049523 -0.0071911206 0.018870128 0.03930267 -0.0026467897 0.0071162535 -0.040938877
0.0070119137 0.013314573 0.039234493 0.041295595 -0.012406356 0.0043301415 -0.016763901 -0.0523275
0.04188297 -0.002519302 0.04016543 -0.05619931 -0.0030088467 0.042045057 -0.007207281 0.05563705
0.041162428 0.007721513 0.065382704 -0.012947921 -0.06015962 -0.042341046 -0.0124150645 0.03485465
-0.007952309 -0.05401593 -0.049118266 0.04000268 -0.006096472 -0.058974944 0.04122154 -0.008874605
0.01617661 0.06754212 0.024407059 -0.04329572 -0.028580835 0.002830326 -0.051231902 -0.036008783
0.04058279 0.017184881
00000000: 5cb5 043d 6b2a f63c 7ea3 ebbb 8795 9a3c
00000010: d6fb 203d c375 2dbb 762f e93b 86af 27bd
00000020: 32c4 e53b 5e25 5a3c 59b4 203d 9225 293d
00000030: 0744 4bbc dce3 8d3b 7354 89bc 5c55 56bd
00000040: 7a8d 2b3d e01a 25bb 8284 243d 3f31 66bd
00000050: 1230 45bb 7037 2c3d 0e2b ecbb ade3 633d
00000060: ef99 283d bf04 fd3b 5ee7 853d 8423 54bc
00000070: ef69 76bd ce6d 2dbd 8e68 4bbc c0c3 0e3d
00000080: 674a 02bc cf3f 5dbd 3c30 49bd dad9 233d
00000090: eac4 c7bb b68f 71bd ebd7 283d cb66 11bc
000000a0: cf84 843c 8653 8a3d 50f1 c73c da56 31bd
000000b0: 5b22 eabc fe7c 393b 8bd8 51bd f27d 13bd
000000c0: 243a 263d 4fc7 8c3c

fc2.weight f4 [1, 50]
0.07161478 -0.023701271 -0.044448897 -0.06712613 -0.07838478 -0.07608806 -0.092352204 -0.090796396
-0.038001876 -0.104872964 -0.095730074 -0.073684536 -0.029362123 -0.073842615 0.05003638 0.042593736
0.090235 0.08771732 0.09179077 0.032872867 -0.042949256 -0.15328407 -0.042307932 -0.06615401
-0.061345 -0.10319802 -0.06817455 -0.11473675 0.12360236 0.116999194 -0.08199694 0.012256211
0.070310265 -0.0032092608 -0.09688013 0.055433143 -0.039904553 0.037719756 -0.08607404 -0.14533396
-0.09093056 -0.12050969 0.06639917 -0.03040522 -0.044463463 0.11893912 -0.06191799 -0.08835869
0.11691589 0.0050421585
00000000: c5aa 923d 2b29 c2bc 0c10 36bd 6d79 89bd
00000010: 3388 a0bd 0fd4 9bbd 2723 bdbd 76f3 b9bd
00000020: dba7 1bbd a3c7 d6bd 210e c4bd ebe7 96bd
00000030: d688 f0bc cc3a 97bd f2f2 4c3d c576 2e3d
00000040: 21cd b83d 23a5 b33d cdfc bb3d b3a5 063d
00000050: 8feb 2fbd 80f6 1cbe 154b 2dbd c17b 87bd
00000060: e544 7bbd 7c59 d3bd 199f 8bbd 1afb eabd
00000070: 3c23 fd3d 469d ef3d 03ee a7bd 46ce 483c
00000080: d4fe 8f3d 7652 52bb 1769 c6bd dd0d 633d
00000090: f572 23bd 0880 1a3d 9647 b0bd 6dd2 14be
000000a0: cd39 babd c9cd f6bd 4afc 873d 5e14 f9bc
000000b0: 521f 36bd 5a96 f33d b89d 7dbd 67f5 b4bd
000000c0: 9971 ef3d b138 a53b
